more-on-data/trainedModel.pt (torch, 217980 bytes, 8 tensors)

input.weight f4 [64, 784]
-0.0350971 -0.00037269667 0.03403869 0.0054673515 0.025824513 -0.03246405 0.020781782 0.00997645
0.021486547 -0.007092949 -0.008417854 -0.021454409 -0.016795387 0.00408979 0.012650265 -0.030386347
0.02507165 0.017947063 -0.009321444 -0.01806378 0.018690702 0.033546854 0.01237217 0.0073534437
0.0023523197 -0.0055992473 0.027392503 -0.01382176 0.012686819 0.018760178 -0.028824361 0.023072261
0.027213585 0.00012973696 -0.02039504 0.00403483 0.032281715 0.0059036002 -0.024045216 0.02109564
-0.025422199 0.027517151 0.02690541 0.011868536 0.015912624 0.028870724 -0.013588099 -0.01230054
-0.014915205 0.025574064 0.026905786 -0.026100144 -0.034428068 0.019658823 0.015794363 -0.021962887
0.013347119 0.029754583 -0.018304681 -0.023299368 0.010395784 0.033883046 0.019421218 0.01949806
-0.00065590045 -0.0042994493 -0.027046192 0.010922661 -0.0022544982 0.027347159 -0.034443565 0.033398464
-0.019177852 -0.026279682 -0.002832006 -0.00017920151 0.0068975813 0.009411958 -0.0021171744 0.026833609
0.027321529 0.027898373 -0.029709954 -0.0062119104 0.035600346 0.0017575957 0.008026205 0.007174336
-0.034451727 -0.008321778 -0.032838117 0.024425395 0.002200165 -0.014283431 0.025454856 0.02886318
0.04086293 0.011533674 0.030135425 -0.0026743577 0.03173988 -0.021964878 -0.021989064 0.0051416913
0.014378008 -0.0310969 0.020906584 -0.0071517946 -0.0116519965 -0.0041488465 -0.0113311075 0.022689726
-0.012584673 0.027577307 -0.027728064 -0.03252381 0.014418384 -0.029284282 -0.019087903 -0.02702275
-0.014385396 -0.025981689 0.046359517 0.04679898 0.037036236 0.0039506042 -0.0039882767 0.014317357
-0.0046277824 0.029233592 0.015058422 -0.032430686 0.001481428 -0.051775992 -0.02793678 -0.042103037
-0.032760184 0.0031078432 0.01338306 0.033320166 -0.01265537 0.023767632 -0.0017683192 0.0004158883
0.03410065 -0.03334203 0.0037506372 -0.008141065 0.0037958913 0.028253393 0.01653907 0.008569982
0.050800823 0.054129988 0.010573112 0.03070581 0.040243503 0.020738782 0.06405095 0.020785224
0.018969297 -0.0029961057 -0.022881804 0.006945732 0.0147839375 0.001747732 -0.002786637 -0.013025595
-0.021465063 0.01772695 -0.0008994291 -0.032759443 -0.011998404 0.033717696 0.025794415 0.010710734
0.01395498 0.015169902 0.058127254 0.040489953 0.08082015 0.012718077 0.056763604 0.037821658
0.059192672 0.06628204 0.024344359 0.02594158 0.04201943 -0.014094238 0.00065510627 -0.008668634
0.026103294 0.0067610424 0.013663072 0.00900994 -0.03303454 0.017166145 0.028670702 -0.00068654335
-0.016401289 -0.00803654 -0.0220002 0.0035635706 0.025658634 -0.010437907 0.0021504276 0.0652978
0.04755724 0.03500128 0.056901634 0.04247271 0.04165096 0.020905377 0.016530873 0.0068152696
0.038547322 0.011545087 0.027849622 0.004573978 0.019524278 -0.021349628 0.01497714 -0.0044249194
-0.010042791 -0.03209819 0.023343805 0.02685949 0.03325857 -0.019277079 -0.01646894 -0.0059776055
0.047968354 0.034178156 0.049419206 0.020125018 0.03831571 0.05474802 0.03920959 0.044352494
0.0017232565 -0.0013277374 0.051818732 0.033369366 -0.0042988956 0.06207126 0.044651523 -0.015832406
-0.043413714 0.025494004 -0.022341056 0.008213521 0.015689617 0.013547866 0.004433083 0.011395594
00000000: fac1 0fbd 8066 c3b9 276c 0b3d 7827 b33b
00000010: ee8d d33c 06f9 04bd 8e3e aa3c 4474 233c
00000020: 8e04 b03c f86b e8bb 0aeb 09bc 28c1 afbc
00000030: 7b96 89bc a503 863b 0f43 4f3c caec f8bc
00000040: 1063 cd3c b805 933c f8b8 18bc 7efa 93bc
00000050: 3e1d 993c 6d68 093d a4b4 4a3c 28f5 f03b
00000060: 6029 1a3b e479 b7bb 3e66 e03c aa74 62bc
00000070: 60dc 4f3c f2ae 993c 1121 ecbc 0a02 bd3c
00000080: 06ef de3c 000a 0839 8013 a7bc 9b36 843b
00000090: d539 043d fd72 c13b 79fa c4bc c3d0 ac3c
000000a0: 3742 d0bc a66b e13c bc68 dc3c 3f74 423c
000000b0: 315b 823c 4c82 ec3c 9ea0 5ebc 3488 49bc
000000c0: e75e 74bc b380 d13c 8669 dc3c f8cf d5bc
000000d0: 7204 0dbd 8a0b a13c 2e63 813c 83eb b3bc
000000e0: e0ad 5a3c e2bf f33c b3f3 95bc 51de bebc
000000f0: 1453 2a3c f3c8 0a3d 3f19 9f3c 65ba 9f3c
00000100: bcf0 2bba 65e2 8cbb fa8f ddbc f6f4 323c
00000110: 34c0 13bb 2607 e03c b214 0dbd d4cc 083d
00000120: df1a 9dbc 7d48 d7bc 2d99 39bb 0ae8 3bb9
00000130: 1b05 e23b 9d34 1a3c 4bc0 0abb 28d2 db3c
00000140: 66d1 df3c 218b e43c 4a62 f3bc 488d cbbb
00000150: abd1 113d 205f e63a 5880 033c b116 eb3b
00000160: 411d 0dbd 1158 08bc 4381 06bd c417 c83c
00000170: a530 103b 0d05 6abc b486 d03c 7a72 ec3c
00000180: e35f 273d bcf7 3c3c 91de f63c 4744 2fbb
00000190: ad01 023d b0ef b3bc 6922 b4bc a27b a83b
000001a0: bd91 6b3c edbe febc 4944 ab3c 9a59 eabb
000001b0: 04e8 3ebc 0cf3 87bb 1ca6 39bc cedf b93c
000001c0: f22f 4ebc cee9 e13c f725 e3bc b037 05bd
000001d0: 163b 6c3c 97e5 efbc 3c5e 9cbc d05e ddbc
000001e0: b9b0 6bbc 8dd7 d4bc 7ae3 3d3d 4ab0 3f3d
000001f0: 4fb3 173d 1274 813b 17b0 82bb 5993 6a3c
00000200: a7a4 97bb 497b ef3c 9ab7 763c 0ad6 04bd
00000210: 7a2c c23a 1013 54bd addb e4bc 3c74 2cbd
00000220: 8b2f 06bd f5ac 4b3b 9f44 5b3c ba7a 083d
00000230: 7858 4fbc 56b4 c23c f2c6 e7ba 950b da39
00000240: 20ad 0b3d a791 08bd 40cd 753b 1a62 05bc
00000250: 7dc4 783b a973 e73c f27c 873c 1c69 0c3c
00000260: 8614 503d 68b7 5d3d d93a 2d3c c08a fb3c
00000270: 5fd6 243d 61e4 a93c 252d 833d c645 aa3c
00000280: 8065 9b3c 505a 44bb 9f72 bbbc 0699 e33b
00000290: 5438 723c 2814 e53a 03a0 36bb 4e69 55bc
000002a0: 80d7 afbc 1c38 913c aac7 6bba c42e 06bd
000002b0: f494 44bc 911b 0a3d cf4e d33c 137c 2f3c
000002c0: 6ea3 643c 2e8b 783c d816 6e3d cbd8 253d
000002d0: 0985 a53d 7b5f 503c f480 683d e2ea 1a3d
000002e0: 0474 723d e1be 873d d26d c73c 7083 d43c
000002f0: 911c 2c3d 85eb 66bc 70bb 2b3a e306 0ebc
00000300: 93d6 d53c bc8b dd3b 14db 5f3c 6d9e 133c
00000310: 3a4f 07bd 04a0 8c3c d2de ea3c 25f9 33ba
00000320: ff5b 86bc b1ab 03bc c339 b4bc cb8a 693b
00000330: 0e32 d23c c103 2bbc 30ee 0c3b daba 853d
00000340: 61cb 423d 815d 0f3d b011 693d ddf7 2d3d
00000350: 329a 2a3d c141 ab3c c16b 873c a052 df3b
00000360: cce3 1d3d 9b27 3d3c e424 e43c 4fe1 953b
00000370: 61f1 9f3c 6ae5 aebc ae62 753c eafe 90bb
00000380: 858a 24bc 6479 03bd 823b bf3c 6f08 dc3c
00000390: 233a 083d f7ea 9dbc dfe9 86bc cadf c3bb
000003a0: 777a 443d 65fe 0b3d cb6b 4a3d 39dd a43c
000003b0: eff0 1c3d 763f 603d 3c9a 203d f6aa 353d
000003c0: e5de e13a 7907 aeba e13f 543d 51ae 083d
000003d0: c0dd 8cbb 6f3e 7e3d 84e4 363d f6b2 81bc
000003e0: 94d2 31bd cdd8 d03c 9704 b7bc 0192 063c
000003f0: 8387 803c def7 5d3c 6543 913b 96b4 3a3c

input.bias f4 [64]
0.047866847 0.086704984 0.025458213 0.040531598 -0.03881838 -0.019722097 0.050646245 0.051487755
0.0019696248 -0.004399002 0.08093587 0.024550539 0.08171714 -0.013403568 0.016246304 -0.004863167
-0.008652298 0.065493785 -0.01692359 -0.033981025 0.03463545 0.099393256 -0.030705366 0.0640402
-0.01736131 -0.007782584 -0.025795044 0.027788853 0.035980906 0.05032703 -0.008041163 -0.0060632615
0.029896613 -0.025851358 0.05905072 0.001943224 0.013965756 0.052019693 0.033853527 0.011449404
-0.0070875967 0.053296715 0.056620795 0.027396178 -0.01744311 0.014822687 0.0129665695 0.022679823
-0.008362367 0.10096352 0.0084487805 0.030702319 -0.042911153 -0.024969826 0.01931668 0.012248371
0.013947481 0.11706017 0.032519147 -0.00015292501 0.04670806 0.079473965 0.01534329 0.0046755215
00000000: 0710 443d 6292 b13d be8d d03c 7604 263d
00000010: 0600 1fbd 3c90 a1bc 7072 4f3d d3e4 523d
00000020: d214 013b 8125 90bb b5c1 a53d 361e c93c
00000030: 515b a73d a49a 5bbc f816 853c 345b 9fbb
00000040: 5ec2 0dbc 9b21 863d 57a3 8abc b02f 0bbd
00000050: e7dd 0d3d b18e cb3d d289 fbbc 8227 833d
00000060: 4e39 8ebc 0c05 ffbb 2150 d3bc 73a5 e33c
00000070: b760 133d b723 4e3d 15bf 03bc 53ae c6bb
00000080: bee9 f43c 3ac6 d3bc 2bdf 713d c7b3 fe3a
00000090: a0d0 643c 9a12 553d ffa9 0a3d 4896 3b3c
000000a0: 123f e8bb a84d 5a3d 35eb 673d f36d e03c
000000b0: dae4 8ebc dbda 723c bc71 543c 09cb b93c
000000c0: 4f02 09bc f6c5 ce3d c16c 0a3c 6e83 fb3c
000000d0: 9bc3 2fbd 858d ccbc 043e 9e3c 64ad 483c
000000e0: fa83 643c 3ebd ef3d cc32 053d 7f5a 20b9
000000f0: f350 3f3d 3fc3 a23d 6c62 7b3c 1e35 993b

fc1.weight f4 [32, 64]
-0.093799494 0.11334919 -0.1206121 -0.11757202 0.110084936 -0.07827928 0.004998366 0.093893826
0.0757591 0.04234766 0.07562477 0.055591658 0.06531273 0.08383898 -0.14021468 0.082025625
0.109239526 -0.091815524 0.079229705 -0.045824636 -0.043932542 0.026475428 -0.100593396 -0.07784463
0.01752745 -0.0064967247 0.049709283 -0.12057365 0.10542064 0.050084352 -0.097492225 -0.05803075
0.08751174 0.098819464 -0.08540222 0.106833786 -0.12069878 0.16856603 0.23580582 0.11503067
0.10018916 0.14280044 0.062886275 0.06622838 -0.04304752 0.11726149 0.12238615 0.049938705
0.1326522 0.21059927 -0.02939765 0.08292109 0.18010284 0.119697794 -0.15385921 0.08766531
0.03107366 -0.013047438 0.05776796 0.035926692 -0.08214997 -0.057633553 0.15344413 0.009082458
0.2174818 -0.054228578 0.09351932 0.13418025 0.016530117 0.086832784 0.06901929 0.14085631
0.0862693 0.0037712941 -0.055750545 0.017484646 0.123630166 0.13901526 -0.0635112 -0.01966504
-0.04254376 0.020444945 -0.003628204 0.12166637 -0.07099586 0.09816664 -0.07872837 -0.08379792
0.041135736 -0.106276356 0.08061241 0.07443164 0.015057245 -0.026655696 0.1448133 -0.073868915
-0.009363949 0.08663097 -0.0057409694 -0.095642336 0.096451126 -0.076317 -0.07894007 -0.0035015354
-0.060435917 -0.03122325 0.17618804 0.027082546 0.059884574 0.04622038 0.08671183 0.08404503
-0.11654663 -0.10092771 0.059969198 -0.071595915 -0.082199425 0.10728744 0.16432202 -0.07706993
-0.038109686 0.058877133 -0.0027000217 -0.1074288 0.041378915 0.14497341 -0.08291786 0.06499933
0.1877542 0.14654402 0.10984124 0.108725555 0.08583067 -0.1471845 0.07431564 0.2171289
-0.1491939 -0.101950854 0.15532203 -0.1746114 -0.10753531 -0.051609423 0.009664888 0.013259566
-0.13591649 0.2062605 0.1600371 -0.08039336 -0.11694931 -0.10009004 -0.018858785 0.13834293
0.15032722 0.10111905 0.10519216 0.050197452 0.17880462 -0.0943746 0.037023228 0.031462543
-0.14134045 -0.098514885 0.19434944 0.078987375 -0.09441743 0.10408877 0.11555103 -0.025755601
-0.09945736 -0.1570411 0.21048386 0.12913185 0.055202764 0.030185055 -0.054003593 0.12027256
0.13063164 -0.20204434 0.043126635 -0.08977922 -0.08170957 0.058881458 -0.07217788 0.12966736
-0.059681658 0.23094937 0.056697648 0.015883293 0.087622024 0.06677102 -0.12184558 0.048704203
0.11376867 0.0068102498 0.17129058 0.18235123 0.028467529 -0.123531014 0.09559788 0.14322034
0.07899783 -0.13359083 0.089731514 -0.01796791 -0.029577913 -0.10818098 -0.14442514 0.0017660252
0.024744168 0.22239012 -0.02671203 0.021603985 -0.031154163 -0.115221545 0.0535661 0.17733856
0.23199697 0.12173795 -0.06073209 0.16865398 0.072257064 -0.025347954 -0.01779104 0.22753176
-0.120728076 -0.029596146 -0.053937312 -0.05284756 -0.0875025 0.05176135 0.25914317 -0.09230674
-0.08405351 0.07781519 -0.006050576 -0.024918837 -0.059693336 0.09091195 -0.018806193 -0.018885424
0.1047175 0.037075575 -0.046852667 0.08898834 0.059519332 0.009349735 -0.07939975 -0.080926865
0.07105779 0.14846864 -0.0004901202 0.09154668 -0.007414723 0.05684365 -0.11950195 0.13815412
00000000: f319 c0bd 9f23 e83d 7a03 f7bd 99c9 f0bd
00000010: 3674 e13d e350 a0bd 55c9 a33b 684b c03d
00000020: 9627 9b3d bd74 2d3d 29e1 9a3d 14b4 633d
00000030: aec2 853d c5b3 ab3d 7094 0fbe 0dfd a73d
00000040: f9b8 df3d c709 bcbd 2f43 a23d 9db2 3bbd
00000050: 9cf2 33bd ffe2 d83c e903 cebd 016d 9fbd
00000060: ba95 8f3c 7ae2 d4bb f69b 4b3d 51ef f6bd
00000070: c7e6 d73d 4025 4d3d 01aa c7bd a7b1 6dbd
00000080: 5b39 b33d dc61 ca3d 5ce7 aebd accb da3d
00000090: ec30 f7bd 939c 2c3e 1577 713e 3395 eb3d
000000a0: f92f cd3d 473a 123e 85ca 803d bfa2 873d
000000b0: 9952 30bd cb26 f03d 97a5 fa3d 878c 4c3d
000000c0: fad5 073e 56a7 573e 57d3 f0bc 88d2 a93d
000000d0: e16c 383e 1e24 f53d 458d 1dbe df89 b33d
000000e0: 308e fe3c ecc4 55bc 199e 6c3d de27 133d
000000f0: 3e3e a8bd 2911 6cbd 7520 1d3e 97ce 143c
00000100: 8db3 5e3e c91e 5ebd 0f87 bf3d 8c66 093e
00000110: 2b6a 873c 63d5 b13d fc59 8d3d a33c 103e
00000120: f5ad b03d d127 773b af5a 64bd f63b 8f3c
00000130: d031 fd3d 045a 0e3e 2912 82bd 9418 a1bc
00000140: 5e42 2ebd 287c a73c 2ac7 6dbb 382c f93d
00000150: 4766 91bd 970b c93d 573c a1bd 3e9e abbd
00000160: f27d 283d 6ba7 d9bd 1f18 a53d 9e6f 983d
00000170: aab2 763c 0c5d dabc f049 143e 9648 97bd
00000180: 406b 19bc 946b b13d be1e bcbb 21e0 c3bd
00000190: 2b88 c53d 164c 9cbd 55ab a1bd 047a 65bb
000001a0: a78b 77bd e7c7 ffbc a36a 343e 37dc dd3c
000001b0: 8749 753d 9551 3d3d f995 b13d cd1f ac3d
000001c0: 00b0 eebd 30b3 cebd 43a2 753d e1a0 92bd
000001d0: 2c58 a8bd 84b9 db3d 0844 283e d7d6 9dbd
000001e0: e718 1cbd 2629 713d d9f2 30bb a103 dcbd
000001f0: f07c 293d e973 143e d7d0 a9bd 5e1e 853d
00000200: a342 403e a30f 163e 72f4 e03d 81ab de3d
00000210: fec7 af3d 89b7 16be cc32 983d 0a57 5e3e
00000220: 49c6 18be 9ccb d0bd bd0c 1f3e 55cd 32be
00000230: 793b dcbd 6764 53bd 7a59 1e3c a73e 593c
00000240: b12d 0bbe f435 533e c4e0 233e 46a5 a4bd
00000250: 1f83 efbd 02fc ccbd bd7d 9abc c5a9 0d3e
00000260: 61ef 193e 8117 cf3d fd6e d73d d89b 4d3d
00000270: 8f18 373e 7847 c1bd aba5 173d dede 003d
00000280: 8dbb 10be 2cc2 c9bd 8a03 473e 22c4 a13d
00000290: ed5d c1bd 7e2c d53d 05a6 ec3d 69fd d2bc
000002a0: 4db0 cbbd 62cf 20be 1589 573e 243b 043e
000002b0: 4b1c 623d a646 f73c df32 5dbd 7651 f63d
000002c0: 4dc4 053e b6e4 4ebe 8ea5 303d 2bde b7bd
000002d0: 5957 a7bd af2d 713d ffd1 93bd 85c7 043e
000002e0: c174 74bd fe7d 6c3e cb3b 683d ae1d 823c
000002f0: 2d73 b33d 3fbf 883d 2d8a f9bd 0f7e 473d
00000300: 8cff e83d 8428 df3b cc66 2f3e 48ba 3a3e
00000310: bc34 e93c d4fd fcbd d2c8 c33d 5aa8 123e
00000320: 9dc9 a13d 09cc 08be 28c5 b73d 7031 93bc
00000330: 614d f2bc fd8d ddbd 2fe4 13be f979 e73a
00000340: 48b4 ca3c 3cba 633e 30d3 dabc d7fa b03c
00000350: 0437 ffbc 46f9 ebbd 2068 5b3d 3d98 353e
00000360: 9d90 6d3e bf51 f93d 36c2 78bd a1b3 2c3e
00000370: 83fb 933d 83a6 cfbc 84be 91bc 16fe 683e
00000380: 4840 f7bd 9e73 f2bc 5fed 5cbd af76 58bd
00000390: 8334 b3bd b603 543d 6aae 843e 510b bdbd
000003a0: 3f24 acbd 925d 9f3d e943 c6bb 9722 ccbc
000003b0: 0081 74bd 0b30 ba3d 720f 9abc 9bb5 9abc
000003c0: 2176 d63d 8fdc 173d 95e8 3fbd 853f b63d
000003d0: 8bca 733d a22f 193c 569c a2bd fcbc a5bd
000003e0: bf86 913d 2a08 183e 697b 00ba d37c bb3d
000003f0: 34f7 f2bb e3d4 683d 70bd f4bd 4678 0d3e

fc1.bias f4 [32]
-0.043484792 0.10625058 0.16647084 0.09149953 0.02722595 0.26533327 0.23217332 -0.123778634
-0.028927583 -0.0144363465 -0.09909628 0.029403877 0.056875788 0.115912944 -0.009468855 0.045601055
0.09729199 0.19505191 0.10483605 -0.107592925 -0.06376903 -0.0507902 -0.077844225 -0.030438706
-0.04294008 -0.074135266 0.023327814 0.015593612 0.11194528 -0.115208805 0.21668105 -0.031046787
00000000: 1c1d 32bd e799 d93d 5577 2a3e 1b64 bb3d
00000010: f508 df3c c3d9 873e d8be 6d3e a77f fdbd
00000020: 8af9 ecbc 6d86 6cbc fef2 cabd 66e0 f03c
00000030: 96f6 683d c463 ed3d 4223 1bbc 2cc8 3a3d
00000040: 0641 c73d b0bb 473e 48b4 d63d ae59 dcbd
00000050: 5699 82bd 6209 50bd cb6c 9fbd 985a f9bc
00000060: f0e1 2fbd 3bd4 97bd f919 bf3c 597c 7f3c
00000070: 9143 e53d 98f2 ebbd a3e1 5d3e d555 febc

fc2.weight f4 [32, 32]
0.30479127 -0.02705677 0.09537278 -0.14083298 0.22104172 -0.38611668 0.6813982 0.03385848
0.12714082 0.40882182 0.1037036 -0.10012803 0.26716366 0.28954306 0.012780843 0.042448442
-0.098009944 -0.032173418 -0.40662915 -0.13597518 -0.13738023 0.17622714 -0.1554461 -0.20848902
0.18652758 0.15115455 -0.24177845 0.40146247 0.15832634 0.08398985 0.26115054 0.10618336
-0.1150438 0.030881353 0.31588113 0.21008039 0.31627256 -0.19296904 -0.26416412 -0.23973945
0.31280318 0.4486719 -0.022366807 -0.043898873 -0.010771698 0.09257132 0.3196393 0.035826836
-0.086208194 -0.24426924 -0.25869194 0.0827941 -0.14907539 0.19349861 -0.08084692 0.27022249
-0.055433348 0.054032538 0.09421522 0.06311596 -0.07158041 -0.058778293 -0.27163967 0.31130248
0.0955956 0.06733527 0.026228562 0.16128628 0.054995354 -0.13319206 -0.21760456 -0.009890243
-0.14663129 0.22049566 -0.0821322 -0.15658475 0.05482428 -0.075274445 -0.15367877 0.076588966
-0.09643688 -0.20050514 0.35777667 0.14889047 -0.1567137 0.120860636 -0.09369114 0.026296744
-0.11269056 -0.02929879 -0.14029641 0.2605626 0.20995393 -0.06420115 0.21124452 0.21407992
-0.063558 0.020654146 -0.003908552 -0.11481545 0.016405243 0.0031646977 -0.04151684 -0.003861323
-0.14290561 -0.13189486 0.010057971 -0.070096046 -0.021458244 0.16776851 0.0047001797 0.044534832
-0.072069764 -0.07065893 -0.16888034 -0.10268428 -0.070805326 0.09772768 -0.04018514 0.07791804
0.010878585 -0.07870207 -0.061006658 0.08490705 -0.08983423 -0.08515469 -0.09250227 0.10425839
0.045493335 0.04915639 -0.2557154 -0.197086 0.316779 0.13653912 -0.09728331 -0.071819924
-0.28703076 0.2516519 -0.07221793 -0.025621375 0.2966135 0.11139755 0.35755572 0.07541721
0.1224808 0.018895274 -0.05272409 0.003270914 -0.25248072 -0.13108386 -0.14550987 -0.031994153
0.14927182 -0.050668 -0.122175656 0.14774416 0.42880473 -0.17127047 -0.06678982 0.16114993
0.2083489 0.05663298 0.2155262 0.2711679 -0.22265793 -0.31500503 0.36973602 0.088452846
0.22521798 0.14545016 -0.11768209 -0.05766197 -0.2348931 0.15492788 0.39832804 0.055484414
-0.0032137847 0.07477325 -0.030015172 -0.0724236 0.07096173 -0.08625702 -0.11808651 0.47192383
-0.05809164 -0.06438787 0.26796645 0.02770545 0.22750531 -0.012249058 -0.18854785 -0.18206258
0.12417534 0.13362953 0.1568091 -0.09067895 -0.13807939 0.010743037 -0.11710022 -0.05935762
-0.051122043 0.16899276 -0.14886795 -0.072449505 -0.17185836 -0.17267904 -0.14901294 -0.16521508
0.17445917 -0.16418393 0.038915258 -0.0042004883 0.07878423 -0.033432115 -0.1339287 -0.043953195
0.11181755 0.03643702 -0.17069495 0.13615134 0.112279214 0.16225131 -0.05962239 0.05461834
0.027845897 0.18399908 0.11128307 0.19833049 0.050215013 -0.06668856 0.091157705 0.1166903
0.39444605 -0.07070705 0.14603265 0.061465353 0.017118126 -0.031637825 0.26983654 0.029480368
-0.17012447 0.38573396 -0.026000012 -0.16568558 0.074454 -0.16181454 0.03276057 0.4055336
-0.17237179 -0.06355463 0.47706532 -0.088615395 -0.0797288 0.12953246 -0.41308406 0.045888755
00000000: 9a0d 9c3e 29a6 ddbc ce52 c33d 8536 10be
00000010: c358 623e 16b1 c5be 1d70 2e3f 31af 0a3d
00000020: 3431 023e 1851 d13e 8e62 d43d ed0f cdbd
00000030: adc9 883e fd3e 943e be66 513c 6bde 2d3d
00000040: 70b9 c8bd 46c8 03bd b231 d0be 143d 0bbe
00000050: 67ad 0cbe e374 343e 432d 1fbe 257e 55be
00000060: 1601 3f3e 42c8 1a3e c594 77be 7d8c cd3e
00000070: 4d20 223e df02 ac3d 86b5 853e a976 d93d
00000080: 159c ebbd e4fa fc3c 2cbb a13e 501f 573e
00000090: 7aee a13e ad99 45be 8540 87be 427e 75be
000000a0: bd27 a03e 53b8 e53e 983a b7bc 4ecf 33bd
000000b0: c77b 30bc 0896 bd3d c3a7 a33e 29bf 123d
000000c0: ec8d b0bd b721 7abe 4573 84be f48f a93d
000000d0: 38a7 18be 8024 463e 1293 a5bd 9a5a 8a3e
000000e0: 140e 63bd 3951 5d3d e9f3 c03d f142 813d
000000f0: c098 92bd 82c1 70bd 5b14 8bbe 0a63 9f3e
00000100: a0c7 c33d 13e7 893d 48dd d63c 3b28 253e
00000110: cf42 613d 8063 08be bbd3 5ebe b00a 22bc
00000120: 8326 16be 9dc9 613e ed34 a8bd c157 20be
00000130: 6d8f 603d 7d29 9abd f85d 1dbe adda 9c3d
00000140: b380 c5bd 3851 4dbe 812e b73e be76 183e
00000150: 8e79 20be c885 f73d 24e1 bfbd 456c d73c
00000160: 4fca e6bd 0404 f0bc dda9 0fbe 7668 853e
00000170: 2afe 563e e47b 83bd 7c50 583e c437 5b3e
00000180: b22a 82bd e232 a93c 5013 80bb 5d24 ebbd
00000190: 4a64 863c d166 4f3b 900d 2abd 400e 7dbb
000001a0: d955 12be 720f 07be 30ca 243c 848e 8fbd
000001b0: 33c9 afbc 82cb 2b3e f703 9a3b 286a 363d
000001c0: 5099 93bd a1b5 90bd f8ee 2cbe 234c d2bd
000001d0: 6202 91bd 7325 c83d 2c99 24bd 7e93 9f3d
000001e0: 183c 323c 8d2e a1bd 1ee2 79bd bfe3 ad3d
000001f0: 02fb b7bd 9565 aebd d571 bdbd 6c85 d53d
00000200: 3857 3a3d 3658 493d 21ed 82be ead0 49be
00000210: db30 a23e e9d0 0b3e 793c c7bd 5316 93bd
00000220: b2f5 92be 85d8 803e fee6 93bd ebe3 d1bc
00000230: badd 973e 6624 e43d 8b11 b73e 5774 9a3d
00000240: 37d7 fa3d 43ca 9a3c 37f5 57bd d55c 563b
00000250: 2745 81be d93a 06be 8a00 15be 4d0c 03bd
00000260: b6da 183e 4089 4fbd 3b37 fabd 3f4a 173e
00000270: 4b8c db3e 8761 2fbe 1ac9 88bd 7d04 253e
00000280: 6a59 553e fcf7 673d e6b2 5c3e 85d6 8a3e
00000290: 7100 64be 5748 a1be 0a4e bd3e c426 b53d
000002a0: 8b9f 663e e3f0 143e 4f03 f1bd f52e 6cbd
000002b0: d187 70be 6aa5 1e3e a7f1 cb3e a043 633d
000002c0: 5c9e 52bb b822 993d 61e2 f5bc d352 94bd
000002d0: 6254 913d 85a7 b0bd 57d7 f1bd 00a0 f13e
000002e0: 80f1 6dbd cadd 83bd e632 893e 8af6 e23c
000002f0: 27f7 683e 46b0 48bc b012 41be 9d6e 3abe
00000300: a44f fe3d 2ed6 083e 9192 203e e3b5 b9bd
00000310: af64 0dbe 9003 303c 3dd2 efbd fa20 73bd
00000320: 5965 51bd 700c 2d3e d770 18be 6860 94bd
00000330: a3fb 2fbe c6d2 30be d996 18be 242e 29be
00000340: 6da5 323e d51f 28be 9b65 1f3d 40a4 89bb
00000350: a059 a13d 1df0 08bd 9b24 09be 4408 34bd
00000360: 9a00 e53d fc3e 153d a8ca 2ebe 426b 0b3e
00000370: a5f2 e53d 3525 263e 9b36 74bd 7bb7 5f3d
00000380: 141d e43c 416a 3c3e 61e8 e33d 2617 4b3e
00000390: 42ae 4d3d 0394 88bd e4b0 ba3d 53fb ee3d
000003a0: d5f4 c93e dcce 90bd 9589 153e 18c3 7b3d
000003b0: 503b 8c3c aa96 01bd 0428 8a3e d080 f13c
000003c0: 1c35 2ebe ec7e c53e fafd d4bc 7ba9 29be
000003d0: 577b 983d b6b2 25be f32f 063d 1aa2 cf3e
000003e0: 3b82 30be ee28 82bd e841 f43e fd7b b5bd
000003f0: da48 a3bd 28a4 043e c17f d3be d9f5 3b3d

fc2.bias f4 [32]
0.1553091 -0.00062527956 0.132724 -0.077288926 0.19083361 0.0768716 -0.078729324 -0.028968213
-0.13606536 -0.07296982 0.18781424 0.20192112 0.13017957 -0.04894302 -0.15115267 -0.17283669
-0.04740222 -0.05417081 0.09574982 0.35314736 -0.1371725 -0.0240082 -0.03340411 0.34263256
-0.17150673 0.029851876 -0.11501139 0.075828195 -0.05802138 -0.2109329 -0.08607777 -0.09726198
00000000: 5909 1f3e cde9 23ba cde8 073e a849 9ebd
00000010: e369 433e db6e 9d3d d73c a1bd bf4e edbc
00000020: b854 0bbe 3371 95bd 6052 403e 69c4 4e3e
00000030: cb4d 053e 7a78 48bd c4c7 1abe 1afc 30be
00000040: d528 42bd 36e2 5dbd 7b18 c43d bbcf b43e
00000050: f376 0cbe d8ac c4bc c0d2 08bd 896d af3e
00000060: 769f 2fbe ec8b f43c 178b ebbd d04b 9b3d
00000070: d4a7 6dbd cbfe 57be 8b49 b0bd 4a31 c7bd

output.weight f4 [10, 32]
-0.7300287 -0.13529186 -0.21636064 -0.14335263 -0.2882513 -0.06984297 0.08874352 0.4641998
0.17261706 -0.1985707 -0.103274986 -0.24581285 -0.090262085 0.017461263 0.17278524 0.06186899
0.1727142 -0.17680609 0.0047631245 -0.42585185 -0.025261063 0.07462151 0.22754593 0.13178706
0.15545002 0.07428339 -0.05206972 0.24568538 -0.02088474 0.38166103 0.47067076 0.14321412
0.3791891 -0.24795943 -0.29162347 -0.16365118 0.02024302 0.53456515 -0.120186046 -0.036768395
-0.089638025 0.08134311 0.1434176 0.40856862 0.029570136 -0.02281221 0.11086489 -0.15215082
0.08112633 -0.22519337 -0.4947737 0.43445906 -0.11203966 -0.16442914 -0.46821216 -0.26822823
-0.028294964 -0.20322196 -0.08332657 -0.32265416 0.14568897 -0.52721506 -0.3833155 -0.14998384
-0.2241357 0.6594812 0.07781869 -0.050633416 0.29347 0.111037396 -0.013231408 0.035789046
-0.0991233 -0.16511552 0.28576773 -0.11724278 0.6129471 0.10181243 0.13260843 -0.046417534
0.11489249 -0.1895141 -0.09507016 -0.39072868 0.14675622 -0.027210236 0.07924483 -0.6143216
-0.17212443 -0.003767504 -0.09299835 0.14409834 0.31653985 -0.15536778 0.20374048 -0.11376792
-0.1782766 0.03533864 0.31665772 -0.10537903 -0.32588312 0.39666998 0.13631168 0.1172121
0.0066887885 -0.06605197 0.327096 -0.43119627 0.28882855 -0.017316679 -0.10788217 0.14657967
-0.05730426 0.047579646 0.12168363 0.33533704 0.018563146 -0.09940498 -0.22585677 -0.40516627
-0.14900643 0.576208 0.16481337 -0.042813532 -0.14283569 -0.009074223 -0.2774366 -0.028595038
0.64758694 -0.076872386 0.09979319 0.081098765 0.0020293326 -0.58042336 0.038588785 -0.61471146
-0.097605355 0.083334304 0.00334176 -0.124806024 -0.067605376 0.010555243 -0.15543047 0.02111803
-0.08961179 0.3563463 -0.08474925 -0.0594468 -0.15624236 0.1411608 0.0051136506 0.26402032
0.05820249 -0.030760434 0.033949662 0.279363 -0.076531805 0.0404868 -0.016654296 0.104057744
-0.18869162 -0.1487657 -0.42259336 -0.005157791 -0.40662697 0.1484183 -0.10180258 0.27896652
0.038999125 0.22469884 0.028103003 -0.013506417 -0.19432633 0.09052721 -0.16806957 0.049647868
-0.07377628 -0.026494246 -0.08351195 0.3512832 -0.10947206 -0.14885445 -0.05741872 0.40585726
0.050899096 0.17251635 -0.16239063 0.03682618 0.14157337 0.009421439 0.18712078 -0.08295773
0.26397046 0.07899631 -0.11289659 -0.14066558 -0.27799237 0.038806584 -0.07579921 -0.10205424
-0.06988451 -0.33760092 0.066018075 -0.03896599 -0.10879911 -0.12495042 0.17305191 0.15598351
-0.052006043 0.33010954 -0.5021345 -0.3557154 0.11340893 0.08128892 -0.35053664 0.058217283
-0.106861636 -0.4326897 -0.08744581 0.6158598 0.06801203 0.29186806 0.10783263 0.12688401
-0.40905225 -0.41678333 0.15114632 0.105013564 0.22860901 -0.53931165 0.13996463 -0.41271886
0.09981991 0.2362526 -0.10724113 0.097032554 0.35197163 -0.05685537 -0.17548047 -0.11146545
0.09448327 -0.29010433 0.49958917 0.36194387 0.14305662 -0.082978964 0.49412695 0.30872864
0.12667185 -0.18174195 -0.11351778 -0.057308435 -0.0015079589 -0.0871204 -0.16742088 -0.05872361
00000000: 29e3 3abf f389 0abe a58d 5dbe 08cb 12be
00000010: ad95 93be d509 8fbd 2abf b53d 99ab ed3e
00000020: 87c2 303e 1e56 4bbe d681 d3bd 5db6 7bbe
00000030: 54db b8bd ec0a 8f3c 9dee 303e 576a 7d3d
00000040: fedb 303e a80c 35be fc13 9c3b 4109 dabe
00000050: 4af0 cebc 2ad3 983d cd01 693e 30f3 063e
00000060: 4a2e 1f3e e421 983d 0f47 55bd f394 7b3e
00000070: 7916 abbc 1369 c33e c2fb f03e b9a6 123e
00000080: 1325 c23e 14e9 7dbe ac4f 95be 2d94 27be
00000090: b1d4 a53c 43d9 083f 1a24 f6bd 759a 16bd
000000a0: 2494 b7bd 3797 a63d 10dc 123e e82f d13e
000000b0: 123d f23c ace0 babc 220d e33d 6dcd 1bbe
000000c0: 9025 a63d 1799 66be fa52 fdbe 6b71 de3e
000000d0: 0d75 e5bd 1d60 28be 81b9 efbe 3655 89be
000000e0: d7ca e7bc 6b19 50be 1fa7 aabd ed32 a5be
000000f0: 7d2f 153e 91f7 06bf ee41 c4be 5d95 19be
00000100: d483 65be c3d3 283f 685f 9f3d fc64 4fbd
00000110: b341 963e 9367 e33d 8cc8 58bc 8997 123d
00000120: 2801 cbbd 0b14 29be 2650 923e fc1c f0bd
00000130: 1aea 1c3f 0983 d03d 81ca 073e 5020 3ebd
00000140: c14c eb3d fc0f 42be 25b4 c2bd 970d c8be
00000150: 4347 163e 00e8 debc 1d4b a23d 2e44 1dbf
00000160: 6341 30be 3ae8 76bb eb75 bebd 848e 133e
00000170: 8311 a23e bb18 1fbe 58a1 503e 28ff e8bd
00000180: 248e 36be 40bf 103d f620 a23e f6d0 d7bd
00000190: 27da a6be 5418 cb3e 4a95 0b3e e60c f03d
000001a0: a02d db3b 4146 87bd 2079 a73e c2c5 dcbe
000001b0: 56e1 933e b5db 8dbc 54f1 dcbd fb18 163e
000001c0: dfb7 6abd e0e2 423d 4435 f93d 4cb1 ab3e
000001d0: bd11 983c d794 cbbd ff46 67be f471 cfbe
000001e0: 2495 18be 5e82 133f d6c4 283e 3e5d 2fbd
000001f0: 8543 12be 0dac 14bc 2c0c 8ebe 2440 eabc
00000200: 42c8 253f 456f 9dbd 5f60 cc3d 1c17 a63d
00000210: 8dfe 043b a096 14bf 460f 1e3d bb5d 1dbf
00000220: 51e5 c7bd 2dab aa3d 6e01 5b3b 4d9a ffbd
00000230: b074 8abd e6ef 2c3c 2a29 1fbe b8ff ac3c
00000240: 6386 b7bd 0673 b63e 0491 adbd 7d7e 73bd
00000250: fffd 1fbe 758c 103e 6990 a73b ac2d 873e
00000260: bc65 6e3d 4efd fbbc cd0e 0b3d ab08 8f3e
00000270: b5bc 9cbd 7dd5 253d 976e 88bc 3a1c d53d
00000280: 6038 41be 0956 18be 285e d8be b002 a9bb
00000290: 6931 d0be f8fa 173e df7d d0bd b3d4 8e3e
000002a0: 8cbd 1f3d 7417 663e 4538 e63c 054a 5dbc
000002b0: 7bfd 46be 5466 b93d 6e1a 2cbe 905b 4b3d
000002c0: 0518 97bd 760a d9bc 5008 abbd 64db b33e
000002d0: e332 e0bd 4d6d 18be e42f 6bbd 86cc cf3e
000002e0: 927b 503d 20a8 303e bb49 26be 0cd7 163d
000002f0: 9cf8 103e 615c 1a3c 979c 3f3e bee5 a9bd
00000300: 2327 873e d1c8 a13d 5436 e7bd a30a 10be
00000310: 0455 8ebe a7f3 1e3d 9e3c 9bbd d001 d1bd
00000320: 9c1f 8fbd 07da acbe 7c34 873d cd9a 1fbd
00000330: 11d2 debd 01e6 ffbd 8534 313e 24ba 1f3e
00000340: 4a04 55bd 1e04 a93e e38b 00bf 5420 b6be
00000350: f142 e83d ce7a a63d 8a79 b3be 3f75 6e3d
00000360: 46da dabd 8189 ddbe ca16 b3bd fda8 1d3f
00000370: e449 8b3d bb6f 953e 5bd7 dc3d e2ed 013e
00000380: 4c6f d1be a064 d5be 1ac6 1a3e 5a11 d73d
00000390: 7b18 6a3e 5410 0abf e352 0f3e e34f d3be
000003a0: 626e cc3d 34ec 713e 3da1 dbbd 01b9 c63d
000003b0: a035 b43e 2de1 68bd 27b1 33be ff47 e4bd
000003c0: 7280 c13d 8e88 94be 27ca ff3e b550 b93e
000003d0: 6f7d 123e e0f0 a9bd 35fe fc3e ae11 9e3e
000003e0: 44b6 013e 901a 3abe 037c e8bd 40bc 6abd
000003f0: b4a6 c5ba 2e6c b2bd 6170 2bbe 2b88 70bd

output.bias f4 [10]
-0.2386057 0.36336026 0.027593736 -0.02361425 0.042113226 0.13398997 -0.20445487 0.22149801
-0.28738874 -0.043057755
00000000: 0d55 74be 5b0a ba3e 420c e23c ac72 c1bc
00000010: eb7e 2c3d ab34 093e 9e5c 51be 60d0 623e
00000020: 9e24 93be 545d 30bd
